dogfight_game/saved_models/checkpoint_actor.pth (torch_old, 30549 bytes, 4 tensors)

fc1.weight f4 [256, 24]
00000000: 0ef1 90be aaa7 d9be 8109 953c 06e5 a3bf
00000010: d019 213e ce55 c8bd 5132 653f 0630 a0bd
00000020: 449a 1fbe 2776 e4be 9934 97bd 15c4 8dbf
00000030: 255a 963e 8b7b 34bd a8cb 9e3e 4ff2 793e
00000040: 20bf a43e 08bd 9c3e a05c 8e3e 4eee aa3e
00000050: 5255 663e 8eb7 773e f073 9b3d 0a1f 13bd
00000060: 4b74 0d3e 9ff2 653e 4981 863f 1433 ebbe
00000070: 822f 993d 633c 083e 6e47 49be 23f0 c4bd
00000080: e548 333e 4ef3 24bf 2c35 83be a140 113f
00000090: 7ef2 fa3c b8bf 12bf 1493 ea3d 396c 073e
000000a0: 8a02 083e 4153 0b3e dbf7 5d3e 94ea 403e
000000b0: 44b6 573e 456a 073e bb94 953b 6b15 48be
000000c0: 307c d5bf 756c 20c0 7e3a d23f 76b2 3fbf
000000d0: 7b9c 263f fba6 803e 1d98 6abd b924 143d
000000e0: d378 02bf beac 033f b7c0 0b3e 0156 ee3e
000000f0: 53ca 583d 9418 1f3e b8a9 05bf 9cfa 06bf
00000100: 2561 d6be ac8b e0be 838b f8be 7d11 ecbe
00000110: a279 dbbe b7a8 fbbe 688b d5be 85c5 9cbe
00000120: ab79 bd3d 5708 aa3e 91cc 49be 1d9b fcbe
00000130: 59f6 843e 3e83 443d 3e03 85bb b405 c2bd
00000140: 22d3 f2bc 3ec3 c3bd 39ec 2539 3600 5c3d
00000150: 1caf 4abe 17db fa3b 11e6 a13d 87fe d63d
00000160: 08ec 093e 630e b43d 8678 0e3e 1f52 863d
00000170: c3e2 873d ad29 a83d 13c3 943e 3fb0 c23d
00000180: d1ae 383e 4acb 843d b5ff adbf 2e52 673e
00000190: 324a eabe 6a26 6c3e 5cfa bd3e 23f9 a0bd
000001a0: bb11 cd3e cacc 883e bd28 143e e9c8 743f
000001b0: cd24 713c e4da 9bbe b199 d73d 4b56 733d
000001c0: 05ce 183e 2b7b a93d 402d 233e 4e75 103e
000001d0: c62f 0f3e 6ee6 cc3d 940a 353e 4bbc 1bbd
000001e0: 2687 b8bf 9d81 87bf 59ef 1fbf 9f49 0640
000001f0: 14d5 dfbe 97cd 0b3e aec4 313e ec81 c33d
00000200: 50dd 80be 97d6 e53d eeed ef3d 44d4 a33e
00000210: 682b 34be 3944 27bd ecc7 7f3e 29d4 653e
00000220: 76d0 583e 2883 613e 4560 793e 1878 503e
00000230: de30 a33e 9053 a33e ce29 ab3d bcab 253c
00000240: 3a3e bd3e 78fd 863e d25c 173d 3ee6 c7bf
00000250: 9912 0bbf 1c6d 8c3e d33b 073f d6b1 91be
00000260: a993 38be 0154 debe 11b5 5b3e d676 d4be
00000270: 3ed5 c6be 11ca a33d 2589 933d 5b44 b73b
00000280: f357 8e3d 4f47 5f3c 4b60 ddbc 1187 e83b
00000290: be6a a83d 6ad6 6b3d 3b2c 213e e2a1 6ebd
000002a0: af8a 9cbe eb80 48be db3d ce3f fb21 303d
000002b0: f4ec 033f d4a2 573e e458 f8be 10d0 10bf
000002c0: c970 2abe d71f f4be 6ea3 a63d ae13 42bf
000002d0: 3d2c b93d 3cc0 623d 00a7 0c3e 9f33 613e
000002e0: 4ba9 453e d270 173e 52e2 3b3e 4963 083e
000002f0: e0ea 363e 238f 403e 5d18 183e 3df8 bc3d
00000300: 8b94 5e3f 6966 613f 0ebc 57bf e6c8 4f3f
00000310: 8246 533f 4e05 c03e 01b6 9d3e 3049 c83d
00000320: dec6 edbf 5e0d 103f 49cd 16bd 998f ea3c
00000330: 75f1 c6bb b00b f4bd 5508 c0bd 4464 b0bb
00000340: b725 eabd abbd 95bd 0130 e5bd 9a50 eabd
00000350: 81da 84bd 5ced e5bb 0e44 5abd 31bb 15be
00000360: b85d 1e3f 0799 403f f892 80bf b679 d13d
00000370: 2d0d 873e 423b 4c3e 4749 353d fe2f 773e
00000380: 0342 f43c 679c 093f acb4 10be 420c 3d3e
00000390: b346 e2bc 146d 2d3e 415e 6e3e 024f 5a3e
000003a0: d195 763e 0e67 983e 94ee 8a3e e2c6 973e
000003b0: 9aa3 6d3e c35b 963e bb58 883d fdeb 14be
000003c0: 5a37 293e 00df 2d3f 9b15 18bd 540f 0a3d
000003d0: db1e a73e b0d2 b5be a4f6 39be 13ae 963b
000003e0: 9f7a b23e 735b 6abf 86dc 07bf aa6a ebbe
000003f0: d6c7 9cbe 6b44 e23c 8d59 46be be79 02be
-0.2830891 -0.4251073 0.018193008 -1.2804267 0.15732503 -0.09781991 0.895299 -0.0782166
-0.15586191 -0.44621393 -0.07383079 -1.1075464 0.2936565 -0.044063132 0.31014752 0.2440884
0.32177067 0.3061297 0.27805042 0.33384937 0.22493485 0.24191114 0.07590473 -0.035918273
0.13813893 0.22455834 1.0508205 -0.45937407 0.074797645 0.13304286 -0.19656155 -0.09616115
0.17508276 -0.64433753 -0.25626504 0.5673924 0.030633207 -0.5732379 0.11453834 0.13224877
0.13282219 0.13605978 0.2167658 0.18839484 0.21065623 0.13224132 0.004564849 -0.1953942
-1.6678524 -2.5066197 1.64241 -0.74881685 0.6508252 0.25127396 -0.057273973 0.036167834
-0.50965613 0.5143546 0.13647734 0.4654999 0.052927326 0.1553672 -0.52212095 -0.5272615
-0.4187099 -0.4385656 -0.4854394 -0.46107092 -0.42866236 -0.49152157 -0.4170792 -0.30619445
0.09251722 0.33209488 -0.19706942 -0.49337092 0.25969198 0.047976725 -0.0040592244 -0.09473744
-0.029641692 -0.09558724 0.00015823626 0.05371114 -0.19793361 0.007655512 0.0790521 0.10497766
0.13468945 0.087918065 0.13913164 0.06558632 0.06635048 0.08211074 0.2905508 0.095062725
0.18035437 0.06484087 -1.359366 0.22589943 -0.45759732 0.23061529 0.37105072 -0.07860019
0.4005259 0.26718742 0.14468665 0.95619065 0.014718247 -0.30440438 0.10527361 0.059408467
0.1492234 0.082754456 0.1593523 0.14107248 0.13983068 0.100048885 0.17679816 -0.038021367
-1.4416244 -1.058643 -0.6247459 2.0982435 -0.43717253 0.13652645 0.17360184 0.09546265
-0.25168848 0.112225704 0.11715303 0.31997883 -0.17594683 -0.040836547 0.24978608 0.22444214
0.21173272 0.22022688 0.2435313 0.20358312 0.3187322 0.3189969 0.08357583 0.010111745
0.36961538 0.26365256 0.036953755 -1.5617139 -0.5432525 0.27426994 0.5282566 -0.2845599
-0.18025078 -0.43423465 0.2145579 -0.41496915 -0.38834566 0.079975255 0.072038926 0.0055928654
0.06950369 0.013627841 -0.027023455 0.0070961793 0.082234845 0.057577528 0.15739529 -0.058259852
-0.30574557 -0.19580428 1.6112627 0.043001156 0.51533437 0.21058208 -0.48505318 -0.5656748
-0.16644587 -0.47680542 0.081366405 -0.7581128 0.09041641 0.05535911 0.1373558 0.21992348
0.19302861 0.14789131 0.18348053 0.13319124 0.17863035 0.18804602 0.14853044 0.09227035
0.8694541 0.8804689 -0.84271324 0.8116592 0.8252946 0.37504047 0.3080292 0.097795844
-1.8576314 0.56270397 -0.03681687 0.028632926 -0.0060712644 -0.11916292 -0.09376589 -0.0053830463
-0.11432975 -0.07311567 -0.11190797 -0.11441155 -0.06486989 -0.007016821 -0.05328756 -0.14622189
0.61861753 0.752335 -1.0044851 0.10228293 0.2637724 0.1994448 0.044259336 0.24139401
0.029816633 0.53754276 -0.14131421 0.18461707 -0.027621603 0.16936141 0.23278143 0.21319202
0.24080588 0.29766124 0.27135146 0.29643923 0.2320694 0.29366884 0.06657549 -0.14543147
0.16525021 0.67918396 -0.03712998 0.033706024 0.32640728 -0.35512304 -0.18160492 0.004598388
0.34859177 -0.9154579 -0.5307087 -0.45979816 -0.30621213 0.027620515 -0.19370098 -0.12741753

fc1.bias f4 [256]
00000000: f914 6cbe fe63 91be 5982 44be f1fc 003e
00000010: 5ee5 a3bd 0554 fcbd 3db4 b1bd dbfe c43d
00000020: 1809 d8bd c67f 8ebe 3f89 7ebe b57e 33be
00000030: eedb 2cbd fe53 2cbe 0a80 47bd a4f5 3d3d
00000040: 3ab2 e1be 7b1c f83d 4df1 aebd 4190 963e
00000050: a610 143e b96f 25be 486d bebe a896 d83e
00000060: 23d9 f4bd 55fa b43e 21d4 bb3d e0ca 1abf
00000070: ef87 23bf 1f13 833d b9a6 a6be 142e 21be
00000080: 829e cf3d ae28 4a3e e76d 123e e91e 31be
00000090: fb74 05bd dd6d 4c3d 74e7 633e cecd 7bbd
000000a0: 4f93 513e f884 b93d 5a6a 523e 07eb a63d
000000b0: 5e8e 40bc 7ab4 66be 78ca f13c 6759 82bd
000000c0: 10b4 92be afbb d6bd 3267 a33e b235 67bd
000000d0: 51b8 27bb d608 b13e dd16 39be 362c c0bd
000000e0: a512 4bbc b6b5 763c e975 a63c 14d2 46bd
000000f0: fe2b be3c 6751 2d3e 1ce8 3d3e b05b 62be
00000100: 4bc3 1f3e ce4b 283e 107a 4c3c ef91 a8bd
00000110: 6265 a4be ec7c 9b3d 4529 29be 3e79 8c3e
00000120: 96b2 1abd 519c bfbe abd9 d1bd c927 933e
00000130: 2ffd 5dbe bf35 d23d 3377 253c c10a 58bc
00000140: a7ee c43e 09c9 4fbe c86b 16be dfa5 3dbe
00000150: bb61 0e3d 1478 f33d 5c23 263e 7ae8 92be
00000160: 5eb5 91be d5ac 773d 116c 41bd 05d0 a5bd
00000170: e4de 273e 8e0d 243d 03d4 0dbe 884f 8d3a
00000180: cb9a a43c ac0a b4be da47 6f3d 915b 523d
00000190: b086 a0bc 0e93 c1ba d013 00bf ab5c 363d
000001a0: 4f4d 48bd 6625 8dbd 6558 b93b 595a 08be
000001b0: 25af dbbe 8433 1cbe a8e3 28bf b900 e7bc
000001c0: b90e 963d 78ab 75be 783e 2bbe 8cb0 c93e
000001d0: 0264 f8bd 0c95 4ebe c370 c2bb 483b 50bf
000001e0: 0c34 493e 6bfb ab39 20c9 ccbe 9f71 2c3e
000001f0: 4b61 3bbd cd2a 5dbd 845b 3abd 9e30 b3be
00000200: 47a2 8c3d bd6e 1d3f ff4c a63d 8251 6c3d
00000210: f6ea 4bbe c689 173e 6ed1 f03d aa8d 0abd
00000220: 3e59 e03d 30b9 cc3d a5c0 afbe 47e3 423e
00000230: a76f 893d d7e0 51bc a6e0 2b3e 8f8b 413f
00000240: 992a 42be eade f5be eff1 3d3e 612d 663e
00000250: 2b3b b0be 5895 91bd 25b5 7a3e ec0f 6dbe
00000260: 8dee ec3d b49a d7bb 0069 a6bd 0641 643e
00000270: 9a6e dbbc 02ec 65be 1bc4 95bd 7f75 8abe
00000280: 2aed d8bd 68e7 cdbe 4ff9 40be be22 abbd
00000290: db58 763e 362d d2be fe6c 95be 6328 f9bd
000002a0: fa3f a3bd 9d68 9f3d 8208 4f3d bde5 2dbe
000002b0: 1740 aabe 1591 e0bd ed38 033e 795b 073d
000002c0: cf70 4abe 482a 9abe 0337 593f 0515 c2be
000002d0: 9c28 be3c f133 183e 86d5 c23e c793 8cba
000002e0: 8d0e 25be a2b1 89be f3f6 323e 2b37 a0bd
000002f0: 9391 3f3e f174 09be a7d8 233e e277 25be
00000300: 3203 b23d 58dd 4fbe e2d6 a03b 1e56 1ebe
00000310: 43c8 55bf 62a7 69bd f5a9 b1bc a84e febc
00000320: 8380 3b3e b7d7 f2bd 4a92 a1be a8b7 153d
00000330: 1f39 203c 8a6c 2dbe 5ad4 41bd e54d 7c3d
00000340: 8f99 bcbd 50d0 193e ac5a 3d3d 9866 d5be
00000350: 36ad 3ebd f030 41bd c3e4 e2be bf93 29be
00000360: 5eb3 a23d d38f 6ebd be1a ae3c b749 53bc
00000370: ef22 523c fae0 783c 5a3d 46be 9ffe 26be
00000380: 34a0 423e 74f6 4abe 3e24 48be eb08 fa3c
00000390: 1378 c53e b481 15be ca1d 663e 31f8 9ebe
000003a0: fc04 37bb cf26 b63c 4d42 0fbe 4d78 3dbe
000003b0: 4e96 aabe 9d28 df3c c40f 633e 27c8 703e
000003c0: 7cc0 27bd 5bec 0abe 8e23 6d3e 05fa 49be
000003d0: b6a7 74be c09c 29be d141 8e3b de0e 9d3e
000003e0: 25e9 6fbe 1d60 3c3e 7055 9f3d bb07 16be
000003f0: 7dc9 80bc ddf7 723e e30d 6abd c2a9 593e
-0.23054875 -0.283966 -0.19190349 0.1259649 -0.08002733 -0.12320713 -0.08676956 0.09618922
-0.105486095 -0.27831858 -0.24857043 -0.17528804 -0.04220193 -0.16828915 -0.048706092 0.04637684
-0.4408129 0.12114807 -0.08542118 0.29406932 0.14459476 -0.161559 -0.3719275 0.42302442
-0.11955478 0.35347238 0.0917132 -0.6046581 -0.63879293 0.064001314 -0.32549074 -0.15740234
0.10137655 0.1974208 0.14299737 -0.17296948 -0.032582264 0.04990946 0.22256261 -0.061475568
0.2046635 0.09058565 0.20548382 0.08150297 -0.011752693 -0.22529784 0.02951549 -0.063647084
-0.28653002 -0.104850166 0.3191467 -0.056447692 -0.002559204 0.34577054 -0.18075128 -0.093834326
-0.012394582 0.015057972 0.020319896 -0.04854019 0.023214336 0.16925584 0.18545574 -0.22105289
0.15601842 0.16435167 0.012480274 -0.082309596 -0.321086 0.07592186 -0.1651965 0.2743625
-0.03776797 -0.37423947 -0.10246595 0.2874129 -0.21678613 0.102641575 0.01009922 -0.013186158
0.38463327 -0.20291533 -0.14689553 -0.18520306 0.03476117 0.118881375 0.16224426 -0.2869299
-0.28458685 0.06046756 -0.0472222 -0.08096317 0.1639362 0.04005199 -0.13850407 0.0010781148
0.020093342 -0.35164392 0.058418132 0.051356856 -0.019595474 -0.0014768557 -0.5003023 0.04452197
-0.048901852 -0.06891899 0.0056562894 -0.13315715 -0.42907062 -0.15254027 -0.65972376 -0.028198587
0.07327027 -0.23991191 -0.16723049 0.39392507 -0.1212845 -0.20174044 -0.0059338524 -0.81340456
0.1964876 0.00032802983 -0.39997196 0.16840218 -0.045747083 -0.053995896 -0.045497432 -0.3499803
0.068668894 0.614971 0.081201546 0.05769492 -0.19913849 0.1479865 0.117586955 -0.033826508
0.109545216 0.09996259 -0.34326664 0.19032012 0.06710749 -0.012809954 0.16784915 0.75603575
-0.18961562 -0.48021632 0.18549322 0.22478248 -0.34420142 -0.07108563 0.24483164 -0.23150605
0.115689375 -0.0065797213 -0.08125496 0.2229043 -0.026786137 -0.22453311 -0.07312795 -0.27042767
-0.105921105 -0.4021561 -0.18845104 -0.08356236 0.24057333 -0.41050118 -0.29184717 -0.12165906
-0.07971187 0.07783625 0.050545223 -0.1698217 -0.33252022 -0.10965172 0.12814684 0.03304622
-0.19769596 -0.30110383 0.84849566 -0.37906662 0.023212723 0.14863564 0.3805353 -0.0010725193
-0.16118832 -0.26893336 0.17477016 -0.078230225 0.18707876 -0.13423516 0.16000615 -0.16159013
0.08692016 -0.2029928 0.0049084285 -0.15462539 -0.835087 -0.057044394 -0.021687487 -0.031043366
0.18310742 -0.118575506 -0.31556922 0.0365521 0.009779244 -0.16935936 -0.047321655 0.061597724
-0.092089765 0.15020871 0.04622905 -0.41679835 -0.046551906 -0.04716581 -0.44315156 -0.16560267
0.07944368 -0.05824263 0.021252986 -0.012895993 0.012825712 0.015190357 -0.19359341 -0.16308068
0.19006425 -0.19820577 -0.19545075 0.03052183 0.38568172 -0.14600259 0.22472301 -0.3104873
-0.0027926555 0.022235302 -0.13990135 -0.18502922 -0.33317798 0.027241046 0.22173983 0.23513852
-0.04095505 -0.13566725 0.23158094 -0.19724281 -0.23892102 -0.16563702 0.004341342 0.30675405
-0.23428781 0.1839604 0.07779968 -0.14651386 -0.015721077 0.23727365 -0.05714215 0.21256164

fc2.weight f4 [4, 256]
00000000: f534 483f dcd1 713d cb70 ee3f bdb6 3ebe
00000010: 6fdb 14bf 441d d1bf 93f8 253f 1331 023e
00000020: 0e50 213f 5a7d d53e 50f9 88bf 5a61 21c0
00000030: 5164 f9be ee7c 86bf 9e62 85bd 1842 ec3e
00000040: 9efb f6bf 6924 e43d 4319 69be c01e 6fbf
00000050: 2041 393e f1ec 90be 4c73 21c0 467b a83e
00000060: ef30 eb3e 0af7 9bbf 7fcf 20bf bd92 b5bf
00000070: fdd2 333f fe15 a23c b95c 1f3f e4b7 0f40
00000080: 4abd ffbe 3743 9f3e 8570 423d f9c3 aa3f
00000090: a0b4 3d3f 8dc0 3940 7dd6 233e 5471 3dbf
000000a0: cfa3 243f a6d7 9dbc 8e81 f53e 617b bd3e
000000b0: ad2b bbc0 8d65 8f3f 58ed a1bf dd6c 393f
000000c0: be52 b03e 415b 843f 895e 133f e32b 5dbd
000000d0: ac86 14bf df5b 9ebc 8389 debe 3f2f f33d
000000e0: d822 f5be 4bc5 6cc0 143f 2b3f 53b7 32c0
000000f0: 5e60 4fba 7068 593d 0d7f 5b40 b47b 203f
00000100: aa9b 24bf acfb 0c3e 71bf 233f 8b10 b83f
00000110: 50a0 1040 da02 a43d 2ebe feba 447d c9be
00000120: 6ac7 e9be 4670 a93f d4b6 2bc0 6c36 e33e
00000130: b0f1 86bf 9400 9e3e 93c0 073d 3d0b 7fbf
00000140: 0081 35bf 3cd0 583b c863 083f acf7 913a
00000150: dfb9 c83f 2bfb 65bf d37c 34bf d34a a93f
00000160: 9cc0 e43e 3bee 39c0 02c4 433e b91d 2bc0
00000170: e905 ea3e 0f2c 0c3f 0143 4abf 2560 5740
00000180: 9033 25be 4825 79c0 b1de d2be 5b8a 103e
00000190: ab69 dd3d 289a 57be 6d39 4940 b7a8 0c3f
000001a0: f1b4 683f 6f00 b8bf 1ac8 b03f a0b1 8e40
000001b0: 6dfa 02c0 ffab b83f d8ac ca3e 8b90 ce3f
000001c0: ecb5 9cbf 66bd 9ebe 0800 2d40 2507 5ebe
000001d0: bbed 6c3f 8e8a 733f 745d b9bc 8279 8c3f
000001e0: 9d97 e03c 355f 723e 5081 d0be 131b 44bf
000001f0: 9252 6d3e 95b4 083c 1a63 f33e 02f3 0b40
00000200: 8b17 fdbe 3b7b f73d 4c68 333f 754d 443f
00000210: 228d 7cbe 722c 063f e9fa 9f3f 4699 303d
00000220: 243d 6d40 129d 4e3c f8f3 9e3f 47f4 babf
00000230: 73b3 f8bf 56df 4fc0 7adb 2240 ce84 333f
00000240: 3b01 ee3e d74e a7bd 7c97 113f 0a53 993e
00000250: 400a 8abf 77b7 c3bf 650b 573e a6be d83f
00000260: 0308 d73d 3fb4 c3bf 4fe5 bebb 0eea f7be
00000270: 40fc 833e 7160 2dbf 0105 92be d040 56c0
00000280: 0ac6 eb3f e245 2e40 8cc0 07c0 1d79 f1be
00000290: dc25 373f 811e 0140 31a4 97bc af67 58bf
000002a0: d2b5 9ebf 1ea3 81bd 38a3 81be 9c1c ae3e
000002b0: c15c 30be a89b 8abf f7d4 c13e c579 4abe
000002c0: 7ef1 12be a975 4f3f aa67 3840 249c f8bf
000002d0: a71b c5bd be9f ad3e 293e 9a3f 94e6 813f
000002e0: 8028 5638 9d69 ee3f 94a8 dd3c d27d 073c
000002f0: a5d5 093f 67a0 503f 44a0 b03e 47fb 1cc0
00000300: 9aff 413d 4d4f 79bd 7422 2bbe 7981 50bb
00000310: d9b7 98bf bfdb 8f3f 2863 643d 8533 81bb
00000320: f6f3 ed3d 5820 aabf 5fd1 423d 98ee e63e
00000330: e0bf 2ec0 4a8e d4be 30b5 c83f b773 4ebf
00000340: 6021 97bf 80a0 1a3e 1ea3 b53f a254 87bf
00000350: a1e6 843b 407d 27be d690 df3f 6b85 463f
00000360: cb47 35be c9aa 1fbf 50bb 28be 3102 693f
00000370: 3b1c c4be bbe2 0ebd f854 15bb e819 7eba
00000380: f8b5 df3f d8b6 14be c4e3 e83e d79b abbf
00000390: 49db bb3e f9db e1bf 4b99 9abf 30bd 2e3f
000003a0: 81fb 9d3d e79c 88bf b9b2 0fc0 a813 2cbb
000003b0: a145 13be 6cf5 123d 54ea 62bd ebe0 6a3e
000003c0: c668 2ec0 9133 d3be 8fdc a4be 39d2 c93f
000003d0: c45e 573f 8e3b 75be d6fb c33f 4387 b93e
000003e0: 60c9 7e3d 8c38 3b3e a3a1 6440 96ee 8ebe
000003f0: ffbd 3d3f 71c3 e1bf f13c 41bf 5002 46bf
0.78205806 0.059038028 1.8628172 -0.18624397 -0.5814733 -1.6337056 0.6483242 0.12714033
0.6301278 0.41697198 -1.0701084 -2.5215669 -0.48709348 -1.0506876 -0.0651295 0.46144176
-1.9295537 0.11139757 -0.22763543 -0.93406296 0.1809125 -0.28305772 -2.5226622 0.3290655
0.4593577 -1.2184765 -0.62816614 -1.4185406 0.7024382 0.019785877 0.6225086 2.2455988
-0.49949104 0.31105968 0.04747059 1.3341056 0.74103737 2.9023774 0.1599979 -0.7400105
0.6431245 -0.019267868 0.47950405 0.37008193 -5.8490815 1.1202866 -1.2650557 0.7243174
0.34438127 1.0340348 0.57566124 -0.05399693 -0.5801799 -0.019330917 -0.43464288 0.11874246
-0.47878146 -3.6995418 0.66893125 -2.7924392 -0.0007910783 0.053078115 3.4296296 0.62688756
-0.64300025 0.1376788 0.6396399 1.4380049 2.2597847 0.080083564 -0.001943534 -0.39353383
-0.45659953 1.3237388 -2.683034 0.44377458 -1.0542507 0.30859816 0.033142637 -0.99626523
-0.70899963 0.0033083102 0.53277254 0.0011136434 1.5681723 -0.89836377 -0.70502967 1.322596
0.446782 -2.9051654 0.1911774 -2.6736891 0.45707634 0.5475473 -0.7900849 3.3652432
-0.16132951 -3.8929005 -0.41185525 0.14115278 0.1081117 -0.210549 3.14413 0.5494494
0.90901095 -1.4375132 1.3811066 4.4591827 -2.0465348 1.4427489 0.39584994 1.6137861
-1.2243018 -0.31003875 2.703127 -0.21682413 0.9255025 0.9513329 -0.02262757 1.0974581
0.027416045 0.23669131 -0.40723658 -0.7660381 0.2317603 0.008343835 0.47536546 2.186707
-0.49432024 0.12084051 0.7008102 0.7668069 -0.24663213 0.5241157 1.2498447 0.043114923
3.7068567 0.012610691 1.2418203 -1.4605798 -1.9429764 -3.2480063 2.5446458 0.7012452
0.46485314 -0.081693344 0.5687177 0.29946166 -1.0784378 -1.5290364 0.2100044 1.6933181
0.10499575 -1.5289382 -0.0058256756 -0.48420757 0.2577839 -0.6772528 -0.28519443 -3.3477058
1.8419812 2.7230153 -2.1211271 -0.47162715 0.71542144 2.0174868 -0.01851091 -0.8453321
-1.2399237 -0.0632994 -0.2531984 0.34006202 -0.17222883 -1.0828753 0.37857792 -0.19773014
-0.14349934 0.8103891 2.8813272 -1.942265 -0.09624415 0.33910936 1.205022 1.0148492
5.1059294e-05 1.8625981 0.027057923 0.008269744 0.5384162 0.81494755 0.34497273 -2.4528368
0.0473629 -0.060866643 -0.16712362 -0.0031815453 -1.1931106 1.1238936 0.055758625 -0.003942909
0.116187975 -1.329112 0.047562953 0.45103908 -2.7304611 -0.41514808 1.5680294 -0.80645317
-1.180706 0.15100288 1.4190404 -1.0572703 0.0040558134 -0.16356373 1.7466075 0.7754733
-0.17703168 -0.6236997 -0.16477704 0.9101897 -0.38302788 -0.034884196 -0.002278624 -0.00096931914
1.7477407 -0.14522874 0.4548627 -1.3406934 0.3669074 -1.7645255 -1.2078031 0.6825743
0.07713986 -1.0672883 -2.2452834 -0.0026256833 -0.1438203 0.035878584 -0.055399254 0.22937362
-2.7251449 -0.4125028 -0.32199523 1.576728 0.84128976 -0.239485 1.5311229 0.3623601
0.062203765 0.1828329 3.5723655 -0.27916402 0.74118036 -1.7637769 -0.75483614 -0.7734728

fc2.bias f4 [4]
00000000: 8800 653e aa28 9bbd f002 62be a7e4 b6bc
0.22363484 -0.075761154 -0.22071433 -0.022325827
