dogfight_game/saved_models/checkpoint_critic.pth (torch_old, 426340 bytes, 7 tensors)

fcs1.weight f4 [256, 24]
0	0xbe9c0ad4	-0.3047701
1	0xbf2fe382	-0.68706524
2	0xbedcdae9	-0.43135765
3	0x3e07ce3f	0.1326227
4	0x3f2272cd	0.6345642
5	0x3f3af2c7	0.730267
6	0x3e221d28	0.15831435
7	0x3e648b21	0.22318698
8	0xbe4d6416	-0.20057711
9	0xbeb2df00	-0.3493576
10	0xbe01d71d	-0.12679715
11	0xbe8a9c56	-0.270724
12	0xbeacc9b0	-0.33747625
13	0x3cdcb6be	0.026942607
14	0xbdb6d82a	-0.08927949
15	0xbda20904	-0.07911876
16	0xbdd788d6	-0.10524146
17	0xbcceb0a1	-0.025230708
18	0xbdcb6c94	-0.09932819
19	0xbd855909	-0.06511123
20	0xbdd0d63c	-0.10197112
21	0xbde91250	-0.11380446
22	0xbd708fa1	-0.058730725
23	0xbcc37db7	-0.023863656
24	0xbe7d80ff	-0.2475624
25	0x3eed70c6	0.46375102
26	0xbf82e0df	-1.0224875
27	0xbf51b95b	-0.81923455
28	0xbdbce235	-0.09222833
29	0xbe6425c2	-0.22280028
30	0x3e3088fe	0.17239758
31	0xbdc28ad7	-0.09499138
32	0xbd008154	-0.031373337
33	0x3f5cb3d0	0.8621187
34	0xbeb84863	-0.35992727
35	0xbf0b4243	-0.5439798
36	0x3d2eca33	0.0426733
37	0x3db74ec6	0.08950572
38	0xbe8fb99e	-0.28071302
39	0xbe71f7cd	-0.23629685
40	0xbe7fbedf	-0.24975155
41	0xbe79a867	-0.24380647
42	0xbe8012a9	-0.25014237
43	0xbe987ada	-0.29781228
44	0xbe778a6a	-0.24173895
45	0xbe656545	-0.22401913
46	0xbe107d54	-0.14110309
47	0x3cc7415f	0.024323164
48	0xbdb5b343	-0.08872082
49	0x4008ec76	2.1394324
50	0x3e7cb4c7	0.24678336
51	0xc019a177	-2.40048
52	0xbe5f764f	-0.21822475
53	0x3dab4015	0.08361832
54	0xbd1416b1	-0.036154453
55	0xbded00b5	-0.115724005
56	0x3b5d7458	0.003379127
57	0xbd1e3c32	-0.038631625
58	0x3dc0d733	0.09416046
59	0xbe9cfdfc	-0.30662525
60	0x3db7137f	0.089392655
61	0xbd8991cc	-0.06717262
62	0xbd2c165c	-0.04201351
63	0xbcaba000	-0.020950317
64	0x3d06c2dd	0.03290068
65	0x3d1b0c15	0.03785332
66	0x3c12ab67	0.008951998
67	0xbcaf8987	-0.021427883
68	0xbd0079a0	-0.03136599
69	0xbcb19218	-0.021676108
70	0x3cf86cb2	0.030325267
71	0xbe02cae5	-0.1277271
72	0x3e253f17	0.16137348
73	0xbe8875bb	-0.2665232
74	0xbfad2d5b	-1.3529466
75	0x4036053e	2.84407
76	0xbd7aff7f	-0.061278816
77	0x3e26190f	0.16220497
78	0x3db5ee27	0.088833146
79	0x3cf7e19c	0.030258946
80	0xbec71e5a	-0.38890344
81	0xbd5b3166	-0.053513907
82	0xbe0a4303	-0.13502125
83	0x3ed37039	0.41296557
84	0xbdcad255	-0.09903399
85	0x3f710506	0.9414829
86	0xbe59bce4	-0.21263462
87	0xbe393443	-0.18086343
88	0xbe4480b1	-0.19189717
89	0xbe207c11	-0.15672328
90	0xbe516936	-0.20450291
91	0xbe657390	-0.22407365
92	0xbe2836a1	-0.1642709
93	0xbe750d37	-0.23930822
94	0xbe276dfc	-0.1635055
95	0xbd295ce3	-0.04134835
96	0xbe24550b	-0.16048066
97	0x3f8d80b0	1.1054897
98	0x3f193a1b	0.59854287
99	0xbf97aa4b	-1.1848844
100	0xbf83704a	-1.0268643
101	0x3d8c5400	0.06851959
102	0x3e9c2c87	0.30502722
103	0x3e674872	0.2258623
104	0x3eaa4178	0.33253074
105	0xbe08b3cf	-0.13349842
106	0x3dba9cc2	0.091119304
107	0x3cfe2504	0.03102351
108	0xbc30adfd	-0.01078367
109	0xbd89beae	-0.067258224
110	0xbe1ec716	-0.15505633
111	0xbe20933e	-0.15681168
112	0xbe1ad9fe	-0.1512222
113	0xbdaeda9f	-0.085377924
114	0xbdb5ab44	-0.08870557
115	0xbd82b605	-0.06382374
116	0xbdb13692	-0.086529866
117	0xbdbd1118	-0.09231776
118	0xbdf4b6c6	-0.11948924
119	0xbd9a185c	-0.075241774
120	0x3f8b10e4	1.086453
121	0x400f2fbd	2.2372887
122	0xbf44f3bb	-0.76934403
123	0xbf129b5f	-0.5726833
124	0xbea12a15	-0.3147742
125	0xbe1618ba	-0.1465787
126	0xbe3299ea	-0.17441526
127	0xbe302cb0	-0.17204547
128	0xbcde0472	-0.027101729
129	0x3e868d62	0.26279742
130	0xbe0eaae1	-0.13932373
131	0x3ea21020	0.31652927
132	0xbdc3e0ce	-0.095643625
133	0x3ddc0ec5	0.107450046
134	0xbdef7364	-0.11691931
135	0xbe0de0b5	-0.1385525
136	0xbe103bb0	-0.14085269
137	0xbd9f8d8d	-0.077906705
138	0xbe04f6b7	-0.12984739
139	0xbdfe3011	-0.12411512
140	0xbe33a573	-0.17543583
141	0xbe19f552	-0.15034989
142	0xbe1096b3	-0.14119987
143	0xbde852e9	-0.11343939
144	0x3f2af343	0.6677744
145	0x3eb9deb4	0.36302722
146	0xbf8f10e9	-1.1177036
147	0xbeb973aa	-0.36221057
148	0xbdd828da	-0.10554667
149	0xbf2e0c6e	-0.67987716
150	0x3e440218	0.19141424
151	0xbd4cb8b9	-0.049980853
152	0xbf111cae	-0.56684387
153	0x3e093cf6	0.13402161
154	0x3e0592a6	0.13044223
155	0xbebba4fd	-0.36649314
156	0x3c4797b3	0.012182164
157	0x3e346df1	0.17620064
158	0xbe27fa24	-0.16404015
159	0xbe2878bc	-0.16452307
160	0xbe29e16d	-0.165899
161	0xbe2c285d	-0.16812272
162	0xbe2f1a0f	-0.17099784
163	0xbe32b10e	-0.17450354
164	0xbe35929e	-0.17731711
165	0xbe3be85b	-0.18350355
166	0xbe319f4f	-0.17345928
167	0xbd44b897	-0.0480276
168	0x3f352d85	0.7077258
169	0x407dbb36	3.9645514
170	0x3dad5c6c	0.08464894
171	0x3ea58eff	0.3233566
172	0x3ea1ec9b	0.31625828
173	0x3e54b0a3	0.20770507
174	0xbb1b3835	-0.0023684625
175	0x3d114f0e	0.035475783
176	0xbedd3bc9	-0.43209675
177	0x3e17d5ae	0.14827606
178	0x3dafe6cb	0.08588942
179	0x3eae1eb5	0.34007803
180	0x3d51783a	0.051140048
181	0xbd350255	-0.044191677
182	0x3ca8a856	0.020588081
183	0x3ca4ef60	0.020133674
184	0x3ca074f1	0.019587012
185	0x3c9e3b99	0.019315528
186	0x3c9f4e50	0.019446522
187	0x3c9d7273	0.019219613
188	0x3c9157de	0.017742094
189	0x3c7c15a9	0.015386024
190	0xbdd8b397	-0.10581129
191	0xbedf848b	-0.4365581
192	0xbf9d6e9c	-1.229938
193	0xbfcd1f6b	-1.6025213
194	0x3f865bf0	1.0496807
195	0xbe66a0d4	-0.22522289
196	0x3e68044f	0.22657894
197	0xbdb8659c	-0.090037555
198	0xbc763640	-0.015027583
199	0xbd66e6fd	-0.05637263
200	0x3dae0632	0.084972754
201	0xbf8cc5d7	-1.0997876
202	0x3c89ef04	0.016837604
203	0xbebf1c14	-0.3732611
204	0x3dbd24b4	0.09235516
205	0x3e51b820	0.20480394
206	0xbd8af856	-0.067856476
207	0xbdd577b9	-0.10423226
208	0xbdc9b480	-0.09848881
209	0xbd9fe32b	-0.07807001
210	0xbdbe227b	-0.092839204
211	0xbde03301	-0.10947228
212	0xbd956ba3	-0.07295921
213	0xbdb500fa	-0.08838077
214	0x3d848be8	0.064719975
215	0x3e8e622f	0.27809283
216	0x3e6f9f7e	0.23400685
217	0xbfb89efb	-1.4423517
218	0xbd19cab0	-0.037546813
219	0x3f5729a3	0.8404791
220	0x3e5037af	0.20333742
221	0x3d16de62	0.036833175
222	0x3d0cba3a	0.034357287
223	0xbe358900	-0.17728043
224	0xbea6a30d	-0.32546273
225	0x3d661a79	0.05617759
226	0xbdc9f64a	-0.09861429
227	0x3dc9172b	0.09818872
228	0xbc809048	-0.015693799
229	0xbf06130c	-0.52372813
230	0xbe0d3240	-0.137887
231	0xbdf20a11	-0.11818326
232	0xbe2dd91c	-0.16977352
233	0xbde2683f	-0.110550396
234	0xbe145e80	-0.14489174
235	0xbdc3eb3b	-0.09566351
236	0xbe241d6f	-0.16026853
237	0xbdf68d78	-0.12038702
238	0x3a77025b	0.0009422653
239	0x3ea356c3	0.3190213
240	0xbe979c1b	-0.29611287
241	0xc04e64de	-3.2249064
242	0xbf38f279	-0.72244984
243	0xbebd9475	-0.37027326
244	0x3f1674ba	0.5877186
245	0x3e976a8b	0.29573473
246	0xbbd79a48	-0.006579671
247	0xbd79e184	-0.061006084
248	0xbda5ec2c	-0.08101687
249	0xbdec6d32	-0.11544265
250	0xbe38e4d5	-0.18056042
251	0x3b8c54d6	0.004282574
252	0xbcc90581	-0.024538757
253	0xbee3641b	-0.44412312
254	0xbccdde28	-0.025130346
255	0x3b89914f	0.0041982303

fcs1.bias f4 [256]
0	0xbe8a5166	-0.27015227
1	0xbe3450e1	-0.17608978
2	0x3e687650	0.22701383
3	0xbd1d272f	-0.038367447
4	0x3cbb2465	0.022844503
5	0xbe86ce94	-0.26329482
6	0x3e0486fe	0.1294212
7	0xbeddfe61	-0.43358138
8	0x3ea835a3	0.32853422
9	0x3eb8dfd8	0.3610828
10	0xbe0caca3	-0.1373773
11	0xbe3a1a2e	-0.1817405
12	0xbd39793c	-0.045281634
13	0xbf397718	-0.7244735
14	0x3ebbdf46	0.36693782
15	0xbe9e6a2d	-0.3094038
16	0xbe3ef433	-0.18647842
17	0x3eb811cc	0.35951078
18	0xbedae232	-0.42750698
19	0xbdf0e18e	-0.11761771
20	0x3e977148	0.29578614
21	0x3e5745a8	0.21022666
22	0x3ef73ef7	0.48290226
23	0x3e4fcc7c	0.20292848
24	0xbe3eb50c	-0.18623751
25	0xbe3bbd39	-0.18333901
26	0x3f0c8758	0.5489402
27	0xbdb6f0d0	-0.0893265
28	0xbe9c2212	-0.30494744
29	0x3d7e30b9	0.062058184
30	0x3e424a55	0.18973668
31	0x3e230d4e	0.15923044
32	0x3f14fef5	0.58201534
33	0x3e5176a8	0.2045542
34	0x3f1233a0	0.57110023
35	0xbe2c0427	-0.16798459
36	0xbdaa20b9	-0.083070226
37	0x3d943919	0.07237453
38	0xbe0042ab	-0.12525432
39	0xbed78880	-0.4209633
40	0x3e0f041e	0.13966414
41	0x3d471bb2	0.048610397
42	0xbc4f0364	-0.012635086
43	0x3cc09d41	0.023512485
44	0xbe16b765	-0.14718397
45	0xbe42b38e	-0.19013807
46	0xbef4ef13	-0.4783865
47	0xbe686df5	-0.22698195
48	0xbdc87371	-0.09787644
49	0xbe20030d	-0.15626164
50	0x3dcf9b0a	0.10136993
51	0xbf0171bf	-0.5056419
52	0xbcb8a733	-0.022540664
53	0x3cca04c8	0.024660483
54	0xbd27e138	-0.04098627
55	0xbee0362c	-0.4379133
56	0xbf3a7d84	-0.7284777
57	0x3d06fc85	0.032955665
58	0xbe60a461	-0.21937706
59	0x3f235b23	0.6381094
60	0x3e44c05f	0.19214009
61	0x3e7eef67	0.24896012
62	0x3d81c715	0.063368
63	0x3df9a5d1	0.1218983
64	0x3ef54779	0.47906092
65	0x3f0396b8	0.51401854
66	0x3eb4d93a	0.3532198
67	0x3e8ffc02	0.28121954
68	0xbca291a3	-0.019844836
69	0xbdeeeffe	-0.116668686
70	0xbf286f23	-0.6579458
71	0x3c9beee1	0.019034805
72	0x3dac2904	0.084062606
73	0xbdd5a892	-0.10432543
74	0xbebf70f3	-0.3739086
75	0x3ef4f177	0.47840473
76	0xbea6074e	-0.32427448
77	0xbe883af2	-0.26607472
78	0xbe869e4c	-0.26292646
79	0x3f1b4176	0.6064676
80	0xbd6a5c75	-0.05721708
81	0xbe56185b	-0.20907728
82	0xbe767700	-0.24068832
83	0xbe686a8b	-0.22696893
84	0x3e5a4d02	0.21318439
85	0x3e9dc169	0.30811623
86	0xbebdaaeb	-0.37044463
87	0xbee75d30	-0.45188284
88	0xbf1df547	-0.6170239
89	0xbdc61ad8	-0.09673089
90	0xbd76061a	-0.060064413
91	0xbeeb1be7	-0.45919725
92	0xbe29458c	-0.16530436
93	0xbe02797c	-0.12741655
94	0xbe5ae3ce	-0.21375963
95	0x3e6f0797	0.23342739
96	0x3d29a855	0.0414203
97	0xbf3855fe	-0.72006214
98	0xbed852e1	-0.42250732
99	0xbebfac43	-0.37436113
100	0x3d09192e	0.03347128
101	0x3dfc49cf	0.12318765
102	0x3d9121b1	0.07086504
103	0x3ec2a0c7	0.38013288
104	0xbde79a75	-0.11308757
105	0x3da9af9c	0.08285448
106	0x3de5978f	0.11210548
107	0x3e5070e4	0.20355564
108	0xbf0125b9	-0.50448185
109	0x3c6a6b0b	0.014307748
110	0xbeefb42b	-0.46817145
111	0xbe9e3a55	-0.3090388
112	0xbf391939	-0.7230411
113	0xbdb2ad16	-0.0872442
114	0xbe99480c	-0.2993778
115	0x3e811a5b	0.2521542
116	0xbed01166	-0.40638274
117	0x3e91c47a	0.28470212
118	0xbe890093	-0.2675825
119	0xbe8181fc	-0.25294483
120	0xbd7efdba	-0.06225369
121	0xbe01f922	-0.12692693
122	0xbdf58f8a	-0.119902685
123	0x3d7213da	0.059100963
124	0xbdcbde83	-0.0995455
125	0xbd884f62	-0.06655766
126	0xbe84d9e5	-0.2594749
127	0x3e25e8bb	0.16202061
128	0x3e8b1c00	0.271698
129	0x3f0dd06c	0.5539615
130	0xbe5a7c75	-0.21336539
131	0x3e81dbed	0.25363103
132	0xbee9965b	-0.45622525
133	0xbd3422a7	-0.04397836
134	0x3e6368ed	0.22207995
135	0xbd873705	-0.06602291
136	0x3e55ef7a	0.20892134
137	0x3e3afc95	0.18260415
138	0xbec42d8d	-0.38316002
139	0x3e830a9d	0.25594035
140	0xbdc89b49	-0.09795243
141	0xbe696c87	-0.22795306
142	0x3e6332e6	0.22187385
143	0x3eaccbb0	0.3374915
144	0x3e017824	0.12643486
145	0x3f740432	0.953189
146	0x3eeaa817	0.45831367
147	0x3e8662e5	0.26247326
148	0x3de24a8c	0.11049375
149	0xbd068509	-0.032841716
150	0x3f5d1a11	0.863679
151	0xbe26ffeb	-0.16308562
152	0xbe83e758	-0.2576244
153	0xbe8c04bc	-0.27347362
154	0xbda58d4c	-0.08083591
155	0x3ce1c936	0.027561765
156	0xbeb123b4	-0.34597552
157	0xbcda7ce6	-0.026670884
158	0x3cdbab78	0.026815161
159	0xbe576570	-0.21034789
160	0xbee81db6	-0.45335168
161	0xbe835617	-0.2565162
162	0x3da9f5f2	0.082988635
163	0x3ec6e1bd	0.388441
164	0x3f068e71	0.525611
165	0x3dd4656b	0.103709064
166	0xbcbb1501	-0.022837164
167	0x3f37f01a	0.7185074
168	0xbe3af327	-0.18256818
169	0x3f13d884	0.5775225
170	0x3ef89d95	0.48557726
171	0x3df8605e	0.121277556
172	0x3dee0d7e	0.11623667
173	0xbddc53ad	-0.107581474
174	0x3e6029b9	0.21890916
175	0xbd73df19	-0.059538934
176	0x3e9d11cc	0.3067764
177	0xbd5e8a85	-0.05433132
178	0x3b1fe794	0.0024399506
179	0x3ebf0ceb	0.37314543
180	0xbedac941	-0.4273167
181	0x3dd264f9	0.10273165
182	0x3e5be033	0.21472244
183	0xbe52a880	-0.2057209
184	0xbebdeed1	-0.37096265
185	0x3e07671e	0.1322293
186	0x3d7263d6	0.059177242
187	0x3e1410e3	0.14459567
188	0x3ede7c2e	0.43454117
189	0x3e09d77f	0.13461111
190	0x3ea07cc8	0.313452
191	0xbebb1575	-0.36539808
192	0x3e3ab2d7	0.18232284
193	0x3e679067	0.22613679
194	0x3e53a8c2	0.20669845
195	0xbe954cb2	-0.29160076
196	0xbeddfd56	-0.43357342
197	0xbebf6294	-0.37379897
198	0xbd81392f	-0.06309735
199	0xbf04f701	-0.519394
200	0xbe53d755	-0.20687611
201	0xbf095612	-0.5364696
202	0xbeb9f297	-0.36317894
203	0xbed4eeb5	-0.4158837
204	0xbe4336b3	-0.19063835
205	0x3ea4e96c	0.32209337
206	0x3cea1349	0.028573649
207	0xbe1d70cf	-0.15375064
208	0x3caeb03d	0.021324271
209	0x3df8ec1c	0.12154409
210	0x3cbacd95	0.022803107
211	0xbe05d596	-0.13069758
212	0x3edfc508	0.4370501
213	0xbe80ce91	-0.25157598
214	0xbed4f720	-0.4159479
215	0x3e1e1ab7	0.15439878
216	0x3e01b989	0.12668432
217	0xbeca7242	-0.39540297
218	0xbe16d96e	-0.1473138
219	0x3e63a6a6	0.2223154
220	0x3e002e8c	0.12517756
221	0x3a216272	0.0006156332
222	0xbe96c60b	-0.2944797
223	0xbe608318	-0.21925008
224	0xbe1c4c13	-0.15263395
225	0xbebd486a	-0.3696931
226	0xbf259935	-0.646869
227	0xbf0cbfdd	-0.5498026
228	0xbe5c2f8c	-0.21502513
229	0x3e5cee1e	0.2157521
230	0x3e26ee0d	0.16301747
231	0xbf1d2445	-0.6138347
232	0xbe9af4a2	-0.30264765
233	0x3f44605b	0.76709527
234	0xbeca246f	-0.39480922
235	0xbeea10af	-0.45715854
236	0x3e727e1a	0.23680916
237	0x3e6c6155	0.23084004
238	0xbd4f75f0	-0.050649583
239	0x3f1414bf	0.57844156
240	0x3e1a04c5	0.15040882
241	0x3d92aec1	0.07162238
242	0xbe91ba6f	-0.2846255
243	0x3cf7aa56	0.03023259
244	0xbd316996	-0.043313585
245	0xbc110262	-0.008850666
246	0x3deb370d	0.114851095
247	0x3f326acb	0.69694203
248	0x3f2fb78e	0.6863946
249	0x3d8e0a0f	0.06935512
250	0x3dd8a32b	0.10577997
251	0xbf2c79f4	-0.67373586
252	0xbe2c540e	-0.1682894
253	0x3e503ab0	0.20334888
254	0x3e011769	0.12606587
255	0x3e51a602	0.20473483

fc2.weight f4 [256, 260]
0	0x3cced72d	0.025249088
1	0x3f3d5fa8	0.73974085
2	0xbdcab74a	-0.09898241
3	0x3e1092eb	0.14118545
4	0x3e70e179	0.23523511
5	0xbec50486	-0.38480014
6	0xbec164cf	-0.37772223
7	0xbf905c65	-1.1278197
8	0xbe6130e4	-0.21991307
9	0x3dd32107	0.10309034
10	0xbed3119b	-0.4122437
11	0xbf688b16	-0.9083723
12	0x3e5d5e0c	0.21617907
13	0xbefee520	-0.49784184
14	0x3e89c394	0.26907027
15	0xbf5f2038	-0.87158537
16	0xbe4aa5a5	-0.19789751
17	0x3ee7453b	0.45170006
18	0xbe7002d6	-0.23438582
19	0x3e50faa1	0.20408107
20	0xbe99abc8	-0.3001387
21	0xbf4172b1	-0.7556563
22	0xbe854bcc	-0.2603439
23	0xbeb60e1b	-0.35557637
24	0xbefd396a	-0.49457866
25	0xbd1a80e9	-0.037720595
26	0x3dd28bbe	0.1028056
27	0xbf21f089	-0.6325765
28	0xbdfb0765	-0.1225727
29	0x3d7ef2e3	0.062243354
30	0x3ec15057	0.37756607
31	0x3e7030bb	0.23456089
32	0xbe445ea3	-0.19176726
33	0xbd84ef9b	-0.064910136
34	0x3d082a96	0.033243738
35	0xbe6411ad	-0.22272368
36	0xbf1b26e3	-0.6060621
37	0x3e9fd280	0.31215286
38	0xbec7f416	-0.3905341
39	0xbf18eb6c	-0.59734225
40	0x3e1ff116	0.1561931
41	0xbee2d806	-0.44305438
42	0xbef962c3	-0.48708162
43	0xbe6a82aa	-0.22901407
44	0xbd28d2e9	-0.041216765
45	0x3b5b9353	0.003350456
46	0xbe72a6ee	-0.23696491
47	0x3e14f060	0.14544821
48	0xbe53229b	-0.2061867
49	0x3f0815b0	0.5315809
50	0x3df1716c	0.11789212
51	0xbf14bade	-0.58097637
52	0xbe1451aa	-0.14484277
53	0x3e565dd8	0.20934236
54	0x3cc152af	0.023598997
55	0x3e9fb60d	0.3119358
56	0xbb05f587	-0.0020440535
57	0x3e48da9c	0.19614643
58	0x3d6e9356	0.05824598
59	0x3ca9b791	0.020717414
60	0x3ead5d8d	0.33860436
61	0xbd819c59	-0.06328649
62	0xbdbb3e59	-0.09142751
63	0xbe8fd945	-0.2809545
64	0x3e496d86	0.19670686
65	0xbe9714c0	-0.29508018
66	0xbe042080	-0.12903023
67	0xbe89622d	-0.26832715
68	0xbe3d3bb8	-0.18479812
69	0xbd3c6980	-0.04599905
70	0xbf29933e	-0.662403
71	0xbf0ba32e	-0.5454587
72	0xbe3da137	-0.1851853
73	0x3e4af771	0.19820954
74	0xbd2f4a5f	-0.042795535
75	0x3ca6d260	0.020363986
76	0x3e55d986	0.2088376
77	0xbf63d774	-0.8900063
78	0x3d712918	0.05887708
79	0x3e07c7e9	0.13259853
80	0xbe012924	-0.1261335
81	0x3c3b3129	0.011425295
82	0xbf29e321	-0.66362196
83	0xbf19a0be	-0.600109
84	0xbea8259f	-0.32841203
85	0xbeda4549	-0.42630985
86	0x3d6616c3	0.05617405
87	0xbd52d4cf	-0.05147248
88	0x3e3f2847	0.18667708
89	0x3f1ce705	0.6129001
90	0x3e859297	0.26088402
91	0xbef243f1	-0.4731746
92	0x3e47fe91	0.19530703
93	0x3f016867	0.5054993
94	0xbe546580	-0.20741844
95	0xbf189a65	-0.5961059
96	0xbf37f024	-0.718508
97	0x3dab1a88	0.0835467
98	0x3db74ae4	0.08949831
99	0x3deab61b	0.11460515
100	0xbd46cce5	-0.048535246
101	0x3e90a2f1	0.28249314
102	0xbe95e133	-0.29273376
103	0xbeffe23c	-0.4997729
104	0x3e0c93aa	0.13728204
105	0x3dce6a8d	0.10078917
106	0xbf3785ea	-0.7168871
107	0x3f092abe	0.53580844
108	0xbe6e9f72	-0.23303011
109	0xbe6a7b85	-0.22898681
110	0x3ea95cdd	0.33078662
111	0xbc68f937	-0.014219574
112	0xbe59d274	-0.21271688
113	0xbf45f73c	-0.77330375
114	0xbe52c545	-0.20583065
115	0xbe38a146	-0.18030271
116	0xbf0d5712	-0.55210984
117	0x3e8e2e1a	0.27769548
118	0x3e09b42c	0.13447636
119	0xbee380ec	-0.44434297
120	0xbd9e1365	-0.07718543
121	0x3f348737	0.7051882
122	0x3f0ffe39	0.5624729
123	0x3e75714e	0.23969004
124	0xbf0e4891	-0.5557948
125	0x3db5ba95	0.08873478
126	0x3dc18d63	0.094507955
127	0x3ee912fc	0.45522296
128	0xbc6ece40	-0.014575541
129	0xbc82640e	-0.01591685
130	0x3df877f3	0.121322535
131	0x3dd2a006	0.10284428
132	0x3ec17554	0.37784827
133	0x3f867ae2	1.0506251
134	0x3dd1e582	0.10248853
135	0xbeaf892b	-0.34284338
136	0xbed74067	-0.42041323
137	0xbf16f055	-0.5896047
138	0xbe27c1b6	-0.16382489
139	0x3f334709	0.70030266
140	0xbe6a9d07	-0.22911464
141	0x3ccefe38	0.025267705
142	0xbea6f45e	-0.32608312
143	0x3e5e5bff	0.21714781
144	0x3e8a97b5	0.27068868
145	0x3e25fac2	0.16208938
146	0xbb44c740	-0.0030025989
147	0xbe6ed0ca	-0.23321834
148	0x3ecdf077	0.40222523
149	0xbe8a7cb2	-0.2704826
150	0x3dc8ed4c	0.09810886
151	0xbe0d43ad	-0.13795348
152	0xbdc75ef0	-0.09734905
153	0xbcec744d	-0.02886405
154	0xbd01ca71	-0.031687204
155	0xbedf1a3c	-0.43574703
156	0xbd9a8bb1	-0.07546175
157	0x3d812d28	0.06307441
158	0x3efed788	0.49773812
159	0xbd3d761c	-0.046255216
160	0x3d22c0b4	0.039734557
161	0xbe1821b3	-0.14856605
162	0xbce99403	-0.02851296
163	0xbe09707f	-0.1342182
164	0x3da02c3d	0.07820938
165	0xbf52f2e5	-0.8240188
166	0xbdbe7c3f	-0.09301042
167	0xbce8e27f	-0.028428314
168	0xbef5763e	-0.47941774
169	0x3ef54848	0.4790671
170	0xbed96de6	-0.42466658
171	0xbe02b0f5	-0.12762816
172	0xbe01da4c	-0.1268093
173	0xbe27dcd4	-0.16392833
174	0xbd71322b	-0.058885735
175	0xbe65f5ef	-0.22457097
176	0xbecbb004	-0.39782727
177	0xbe3f20de	-0.18664882
178	0x3ecfd1de	0.40589803
179	0xbe3ee9c1	-0.18643858
180	0x3e7e3d3b	0.24828045
181	0xbc257c9a	-0.010100508
182	0xbe54ba12	-0.20774105
183	0xbe6a1ea9	-0.22863258
184	0x3e3aaf38	0.18230903
185	0x3e798855	0.24368413
186	0x3ebd4de3	0.36973485
187	0x3de4e614	0.111766964
188	0xbe3681da	-0.17822972
189	0x3e4ab51c	0.1979565
190	0x3de01ebf	0.10943364
191	0x3ed6b9e0	0.41938686
192	0x3e860e2d	0.2618269
193	0x3ef5d3f4	0.4801327
194	0x3bd3a59a	0.00645895
195	0x3d5293cf	0.051410493
196	0xbe366f2d	-0.17815848
197	0x3c8c84d8	0.017153189
198	0xbf29d0b0	-0.66334057
199	0xbdb67a26	-0.08910017
200	0xbe4a9a3e	-0.19785401
201	0xbe9990c9	-0.29993275
202	0x3d9af996	0.07567136
203	0x3e338d70	0.17534423
204	0xbe946d36	-0.2898957
205	0xbc10aa80	-0.008829713
206	0xbe80a693	-0.25127086
207	0xbf0b2054	-0.54346204
208	0x3e957cac	0.2919668
209	0x3d747c05	0.059688587
210	0x3ecb8f6c	0.3975786
211	0x3eae210f	0.34009597
212	0xbe2521c0	-0.16126156
213	0xbead953f	-0.33902928
214	0x3cd3a8ed	0.025837386
215	0x3de7e4fb	0.113229714
216	0xbdf2b170	-0.1185025
217	0x3ab3ea5f	0.0013726464
218	0x3defe785	0.11714081
219	0x3ea6fe95	0.32616106
220	0x3e933a30	0.2875533
221	0x3c1cc631	0.009568737
222	0xbeab7e25	-0.33494678
223	0xbe5687eb	-0.20950286
224	0xbe80034d	-0.25002518
225	0x3d85269f	0.06501507
226	0xbe02f939	-0.12790383
227	0x3ddd466f	0.1080445
228	0xbc9c8224	-0.019105025
229	0xbf0354c6	-0.5130123
230	0x3e39ac55	0.18132146
231	0x3f01f3c4	0.5076258
232	0xbd08cf5c	-0.03340088
233	0x3e47629e	0.19471213
234	0x3f1ba87e	0.60803974
235	0x3dafb78f	0.08579933
236	0x3e9078c1	0.28217128
237	0x3ea359f2	0.3190456
238	0x3e153834	0.14572221
239	0xbef3ab3d	-0.47591582
240	0x3e3e4b74	0.1858347
241	0xbd835028	-0.06411773
242	0x3e29c5b7	0.16579328
243	0xbbfc92a2	-0.0077079097
244	0x3eae4218	0.340348
245	0x3e49e073	0.19714527
246	0x3e0d2dca	0.13786998
247	0xbf1ec793	-0.62023276
248	0x3f2e3adb	0.68058556
249	0x3dd1741e	0.10227226
250	0xbf12e8a2	-0.5738622
251	0xbf8f87c1	-1.1213304
252	0xbefda3cd	-0.49539033
253	0x3c4b75fd	0.012418267
254	0x3e850159	0.2597759
255	0xbf1b01ba	-0.6054951

fc2.bias f4 [256]
0	0x3ef7113f	0.48255345
1	0x3e2eba45	0.17063244
2	0x3f82ab29	1.0208484
3	0xbe62c1b7	-0.22144209
4	0x3efcfc0f	0.49411055
5	0xbe8243bc	-0.25442302
6	0x3d76fbe3	0.06029881
7	0x3deac99c	0.11464235
8	0x3f321769	0.6956697
9	0xbd9ce946	-0.07661681
10	0x3f52eaf4	0.8238976
11	0xbd766132	-0.060151286
12	0x3e3444dc	0.17604393
13	0x3f44f3d0	0.7693453
14	0x3e464916	0.19363818
15	0x3e8d3634	0.27580416
16	0x3ca6e86c	0.0203745
17	0xbda57489	-0.08078868
18	0xbe624d54	-0.22099811
19	0x3eb8f4dd	0.36124316
20	0x3e9503c6	0.2910444
21	0xbe4ee36e	-0.20203945
22	0xbd60e237	-0.054903235
23	0x3dab506b	0.08364948
24	0x3e6df818	0.23239172
25	0x3e9640e7	0.29346392
26	0xbe66f91f	-0.2255597
27	0x3e9d370a	0.30706054
28	0x3e497d86	0.1967679
29	0x3e899ac0	0.26875877
30	0x3d3c62ed	0.04599278
31	0xbebeade7	-0.37242052
32	0xbcf0ac90	-0.02937916
33	0x3f0c5755	0.5482076
34	0x3eeda407	0.46414205
35	0x3e8b341b	0.2718819
36	0xbe85db06	-0.26143664
37	0xbe05f1c0	-0.13080502
38	0x3ebc495a	0.36774713
39	0x39e51b80	0.00043698773
40	0x3f30f15a	0.69118273
41	0x3e3ce0ea	0.18445173
42	0x3e8e37d7	0.27776977
43	0xbeade07e	-0.33960336
44	0x3e4a864d	0.19777794
45	0xbd8799a2	-0.066211
46	0x3d34b8ce	0.044121556
47	0x3f031d52	0.51216614
48	0xbc434abe	-0.011919675
49	0xbf114e92	-0.56760514
50	0x3efb8b13	0.49129543
51	0x3eed9dce	0.46409458
52	0x3e34441e	0.1760411
53	0x3eaa9e11	0.3332372
54	0xbdb1f74b	-0.086897455
55	0xbdf339f3	-0.11876287
56	0xbf82d13d	-1.0220104
57	0x3f0ed6e1	0.5579663
58	0xbe0cc8a5	-0.13748415
59	0x3fa94427	1.3223923
60	0x3f0a18ab	0.5394389
61	0xbe940d80	-0.2891655
62	0x3e981c89	0.2970927
63	0x3e7818e2	0.24228242
64	0x3cb29a32	0.021802042
65	0x3f4b3c93	0.79389304
66	0xbe611175	-0.21979316
67	0x3cae7c13	0.021299398
68	0x3e24e360	0.16102362
69	0xbe964b29	-0.29354218
70	0xbd14da26	-0.036340855
71	0x3f610673	0.87900466
72	0x3cd08234	0.02545271
73	0xbdcf67c1	-0.10127211
74	0xbde98597	-0.11402433
75	0x3ea26167	0.31714937
76	0xbead26cc	-0.33818662
77	0x3e8cc14c	0.27491224
78	0x3d2fb3e8	0.04289618
79	0x3efc7eb3	0.49315414
80	0xbdf6f276	-0.120579645
81	0x3e3be03c	0.18347257
82	0xbe4af1a5	-0.19818743
83	0xbd90bc17	-0.07067125
84	0x3ea9f84d	0.3319725
85	0x3cf7e61f	0.030261097
86	0x3ef91d2e	0.48655075
87	0x3d43bd42	0.047787912
88	0xbcf0bd76	-0.029387217
89	0x39881014	0.0002595192
90	0x3f9d365d	1.2282215
91	0x3e63fa9b	0.22263567
92	0xbda48103	-0.080324195
93	0x3ef92532	0.4866119
94	0x3e9f5e7c	0.31126773
95	0xbe7de305	-0.24793632
96	0x3e9f0181	0.31055835
97	0xbe724cc2	-0.23662093
98	0xbe3bbd2e	-0.18333885
99	0xbd9a20be	-0.07525776
100	0x3e03862b	0.1284415
101	0x3ed088c1	0.40729335
102	0x3f02b1be	0.51052463
103	0xbe4c144c	-0.19929618
104	0xbccec7b4	-0.02524171
105	0xbe3e10ec	-0.18561143
106	0x3e14a9bb	0.14517872
107	0xbd4ce2d3	-0.050021004
108	0xbdb31792	-0.0874473
109	0x3f8af723	1.085667
110	0xbe984b12	-0.29744774
111	0xbc863852	-0.016384277
112	0xbeb57055	-0.35437265
113	0x3f4b6e15	0.79464847
114	0x3f031235	0.51199657
115	0xbc58eb5b	-0.013239707
116	0x3f33bd6c	0.7021091
117	0xbec058ce	-0.37567753
118	0xbd1c50ae	-0.03816288
119	0x3eabc9d5	0.33552423
120	0x3eeaefa0	0.45885944
121	0xbda2cd9b	-0.079493724
122	0x3f259810	0.64685154
123	0x3d556856	0.052101456
124	0x3ddc7217	0.107639484
125	0x3e327f42	0.17431358
126	0x3b1e9e5a	0.0024203272
127	0xbdf93ba6	-0.1216958
128	0xbf819343	-1.0123066
129	0x3d8d1ea3	0.06890609
130	0x3f2ed061	0.6828671
131	0xbe911e25	-0.2834331
132	0x3f8851eb	1.0649999
133	0x3f3ea604	0.7447207
134	0x3d26f474	0.040760472
135	0x3e8a8450	0.2705407
136	0x3f35b197	0.70974106
137	0xbe2706c9	-0.16311182
138	0xbe380a2d	-0.17972632
139	0x3da0d3f9	0.078529306
140	0x3fb3bd1c	1.4042087
141	0x3f338f80	0.7014084
142	0x3dbd03fe	0.09229277
143	0x3df4840f	0.11939251
144	0xbe94fc63	-0.29098806
145	0xbe1ac218	-0.15113103
146	0x3d945ef7	0.072446756
147	0xbcbb649d	-0.022875125
148	0xbea3a851	-0.31964353
149	0x3dd51fce	0.10406457
150	0xbda6ea6b	-0.081501804
151	0xbc06972f	-0.008214756
152	0xbdad2e03	-0.08456042
153	0x3ee57260	0.44813824
154	0x3eee3a00	0.46528625
155	0x3edc88d1	0.43073133
156	0x3c919e83	0.01777578
157	0x3f11828e	0.56839836
158	0x3f34d747	0.7064099
159	0x3d49c6c7	0.049261834
160	0x3f74d650	0.95639515
161	0x3cef5176	0.029213648
162	0xbe3cd84c	-0.18441886
163	0x3f617054	0.88062024
164	0x3f15c3b1	0.58501726
165	0x3f033d11	0.51265055
166	0xbd02c74b	-0.03192834
167	0xbbdc1d18	-0.0067173354
168	0x3de72652	0.11286606
169	0xbb3c3248	-0.0028716493
170	0x3f3d1326	0.73857343
171	0xbcf6897c	-0.030094855
172	0x3ee72285	0.45143524
173	0x3f343610	0.7039499
174	0x3c019f5d	0.00791153
175	0xbdd0c295	-0.101933636
176	0xbeb46055	-0.35229746
177	0x3f1bb823	0.60827845
178	0x3fc772d5	1.5581919
179	0x3f0bcca1	0.54609114
180	0x3f19a87c	0.6002271
181	0xbe08a84c	-0.1334545
182	0x3e5219fe	0.20517728
183	0x3ddd201e	0.107971415
184	0xbd39e914	-0.045388296
185	0xbdb45a27	-0.08806258
186	0x3e436d75	0.19084723
187	0x3e54da74	0.20786458
188	0x3f0d8bf3	0.5529167
189	0x3f060fd0	0.5236788
190	0x3f1c2907	0.610001
191	0x3e3969dc	0.18106788
192	0x3f2c76ec	0.6736896
193	0x3f17f146	0.5935253
194	0x3f52158a	0.82064116
195	0xbf1b84e5	-0.60749656
196	0xbecaf1b3	-0.39637527
197	0x3ec43af9	0.38326243
198	0xbb416d46	-0.0029514595
199	0xbebb347c	-0.3656348
200	0x3e0e5559	0.13899745
201	0xbf04b963	-0.5184538
202	0x3dd6965e	0.10477899
203	0xbd8c3763	-0.06846502
204	0x3f3da501	0.740799
205	0x3e058b4a	0.13041416
206	0xbdd84d92	-0.1056167
207	0x3da0afeb	0.07846054
208	0xbe0fd150	-0.1404469
209	0xbb2b041b	-0.0026094976
210	0xbe42a0a2	-0.19006589
211	0x3e5c10df	0.21490811
212	0x3ec54771	0.38531068
213	0x3eb668c3	0.35626802
214	0x3f8babe8	1.0911837
215	0xbea4e1a3	-0.32203397
216	0x3e4b8f81	0.19878961
217	0xbe58cc44	-0.21171671
218	0xbf6acfa3	-0.9172308
219	0x3eff831a	0.4990471
220	0x3e4cb05c	0.19989151
221	0x3cb32d82	0.021872286
222	0x3e0cd1f2	0.13751963
223	0x3f4e5771	0.80602175
224	0xbe4aa4e8	-0.19789469
225	0xbe33e3e8	-0.17567408
226	0x3e4bfa01	0.19919588
227	0xbd8236b5	-0.06358091
228	0x3f57c783	0.84288806
229	0xbe619b48	-0.22031891
230	0x3e82e36f	0.25564143
231	0xbe4536bd	-0.19259162
232	0xbd48c57b	-0.049016457
233	0xbdb3e63b	-0.08784147
234	0x3cdb5976	0.026776057
235	0x3e004ae5	0.1252857
236	0x3d35032e	0.044192486
237	0x3f110ebb	0.566631
238	0xbe047e2b	-0.12938754
239	0x3e4b3627	0.19844876
240	0x3ee711e4	0.45130837
241	0xbe5ca66a	-0.21547857
242	0x3f177dbf	0.5917625
243	0x3f09fc77	0.53900856
244	0x3ec75cfc	0.3893813
245	0x3f87d0e4	1.0610623
246	0x3d607ce0	0.05480659
247	0xbe21210d	-0.15735264
248	0x3e75ab9f	0.2399125
249	0x3dad8d97	0.08474272
250	0xbd251361	-0.040301684
251	0xbeffaa12	-0.4993444
252	0x3dcfbb50	0.10143149
253	0x3f9a6433	1.2061828
254	0x3dc382c2	0.095464244
255	0xbe0a4440	-0.13502598

fc3.weight f4 [128, 256]
0	0x3eb94d3b	0.36191735
1	0xbe4a48bb	-0.19754307
2	0xbe44ef98	-0.19232023
3	0xbeacceb9	-0.33751467
4	0xbebd3679	-0.36955622
5	0xbd367a19	-0.044550035
6	0x3d8885e9	0.06666166
7	0x3eb4b611	0.35295156
8	0x3e27bfe3	0.16381793
9	0xbf9278a3	-1.1443065
10	0xbe7493da	-0.23884526
11	0xbdc5eba0	-0.096640825
12	0x3c8daac6	0.017293345
13	0x3ea332a2	0.31874567
14	0x3ea3ad7d	0.319683
15	0x3e27806f	0.16357587
16	0x3eca934d	0.39565507
17	0xbed70959	-0.4199932
18	0xbed1457e	-0.4087333
19	0xbcd94997	-0.026524348
20	0x3e89e578	0.26932883
21	0xbefb8f28	-0.49132657
22	0x3dfc1fad	0.12310729
23	0xbf30f1ff	-0.69119257
24	0x3edc43d8	0.4302051
25	0x3ea3462d	0.31889477
26	0x3d40e6cf	0.047095116
27	0xbe49baaf	-0.1970012
28	0x3e82a787	0.25518438
29	0x3e34e15b	0.17664091
30	0xbee8102f	-0.45324847
31	0x382bf51f	4.0997864e-05
32	0x3ed9a020	0.42504978
33	0x3df593fb	0.11991116
34	0xbe9b1bcd	-0.30294648
35	0x3ec17321	0.3778315
36	0xbd8c9740	-0.06864786
37	0xbf12fec7	-0.5742001
38	0x3e7f7a38	0.24948967
39	0x3dc6e626	0.09711866
40	0x3ed3d0dd	0.41370288
41	0x3ea606b1	0.3242698
42	0x3f310fb9	0.69164616
43	0xbf6b0ec1	-0.9181939
44	0x3edf532b	0.4361814
45	0x3d8e5fde	0.06951879
46	0x3bc5ff45	0.0060423934
47	0x3e6d52d7	0.23176132
48	0xbce3335d	-0.027734453
49	0xbe1d032f	-0.15333246
50	0x3b0324ca	0.0020010942
51	0x3ee9965d	0.4562253
52	0x3dddc09f	0.10827755
53	0xbe9cac3a	-0.30600148
54	0xbf401794	-0.7503598
55	0x3daa64d5	0.083200134
56	0xbf7ba43e	-0.9829749
57	0xbe6ee01c	-0.23327678
58	0x3db22cc9	0.08699948
59	0xbd91d89f	-0.07121395
60	0x3e9442f8	0.28957343
61	0xbdb0f939	-0.086412854
62	0x3f4faf53	0.811269
63	0x3daa345a	0.083107665
64	0xbee514a0	-0.44742298
65	0x3d78310d	0.060593653
66	0xbf648dd4	-0.8927891
67	0xbeb0ba5c	-0.3451718
68	0xbdb99cba	-0.09063096
69	0xbead627e	-0.33864206
70	0xbecd5724	-0.40105546
71	0x3e3d0f2d	0.1846282
72	0xbdd04ab2	-0.10170497
73	0x3eb1b195	0.34705797
74	0x3f1c3d44	0.61030984
75	0xbdddfbd5	-0.10839049
76	0xbe7e6721	-0.24844028
77	0xbeb9202c	-0.36157358
78	0x3e75ea7d	0.24015231
79	0x3ea65c1e	0.32492155
80	0xbf4e573a	-0.8060185
81	0xbea21264	-0.31654656
82	0xbf951fbd	-1.1650311
83	0x3ddd417b	0.10803505
84	0x3ecd614e	0.401133
85	0x3e88979b	0.26678166
86	0x3f2c8602	0.6739198
87	0xbc47f311	-0.012203948
88	0xbe180157	-0.14844261
89	0x3e5440ac	0.20727795
90	0xbd135b09	-0.03597549
91	0x3e9985a4	0.29984772
92	0x3e5f028d	0.21778317
93	0x3dd160b8	0.10223526
94	0x3ea4f887	0.3222086
95	0x3ccc160b	0.024912855
96	0x3e2b165e	0.16707751
97	0x3db8565e	0.09000848
98	0xbea5774d	-0.32317582
99	0xbded5a7a	-0.11589523
100	0x3f1d42b7	0.61429924
101	0xbe948556	-0.29007977
102	0xbe40bd5a	-0.18822232
103	0xbe0b8421	-0.13624622
104	0xbeb3a8e9	-0.35089806
105	0xbf636876	-0.8883127
106	0xbe250360	-0.16114569
107	0xbcd412e4	-0.025887914
108	0xbe62fcfa	-0.22166815
109	0x3ce1974d	0.027537966
110	0xbeb8d3b6	-0.36099023
111	0xbeaa2745	-0.33233085
112	0xbe80d540	-0.25162697
113	0x3df361ff	0.11883926
114	0x3e5c2bbf	0.21501063
115	0x3e50bc68	0.20384371
116	0xbdf738e3	-0.12071397
117	0xbe813a62	-0.25239855
118	0xbe162bee	-0.14665195
119	0xbe1bd40a	-0.15217605
120	0xbe911734	-0.28338015
121	0xbec3685d	-0.3816556
122	0x3e17cf51	0.14825179
123	0x3e2763b3	0.16346626
124	0x3b5aad45	0.0033367437
125	0xbead0698	-0.33794093
126	0xbeb9c5e5	-0.36283794
127	0x3e97992c	0.29609048
128	0xbe9777f1	-0.29583696
129	0x3e09b87f	0.13449286
130	0xbe2f8025	-0.17138727
131	0xbf549269	-0.83035904
132	0xbcfc60f6	-0.030807953
133	0x3e882a48	0.26594758
134	0xbcf3086b	-0.0296671
135	0xbcc3fd50	-0.0239245
136	0xbe1a3046	-0.15057477
137	0xbefb8ed1	-0.49132398
138	0x3eb2b187	0.34901068
139	0xbd054d91	-0.032544676
140	0xbdb266b1	-0.08710993
141	0x3e482535	0.19545443
142	0xbcbfcb4d	-0.023412371
143	0x3e828b99	0.2549713
144	0x3eb773c7	0.3583052
145	0xbe60b14a	-0.2194263
146	0x3e3421a5	0.1759096
147	0x3e5adfd4	0.21374446
148	0xbb9fccd0	-0.0048767105
149	0x3f2091b8	0.6272235
150	0x3e9e0cb2	0.3086906
151	0x3bf5032e	0.0074771857
152	0x3b2d4690	0.0026439764
153	0xbda8dc48	-0.0824514
154	0xbdabc71f	-0.08387589
155	0x3bdda5e7	0.006764162
156	0x3e908068	0.28222966
157	0x3ed1f74d	0.41008988
158	0x3e5edec1	0.21764661
159	0xbed713b3	-0.42007217
160	0xbd715e2e	-0.058927707
161	0xbd0e776b	-0.034781855
162	0x3e748e1b	0.23882334
163	0xbe0fa51c	-0.14027828
164	0x3d0935f6	0.033498727
165	0xbd0579d7	-0.0325869
166	0x3e4ee1bf	0.20203303
167	0xbea6ca48	-0.32576203
168	0x3e259b74	0.16172582
169	0xbe7539ce	-0.23947832
170	0xbf4239f9	-0.7586971
171	0xbf110973	-0.56655043
172	0xbf139839	-0.5765415
173	0x3e52b5b6	0.2057713
174	0x3d038714	0.032111242
175	0xbe55ad16	-0.20866808
176	0xbe541243	-0.20710091
177	0xbc1bd3f6	-0.009510985
178	0xbd956117	-0.07293909
179	0x3ec9563a	0.39323598
180	0x3d822776	0.06355183
181	0xbe2f9de5	-0.17150076
182	0xbd086450	-0.03329879
183	0xbf69f42f	-0.9138822
184	0xbebe22df	-0.3713598
185	0xbcbb15de	-0.022837576
186	0x3eb91996	0.36152333
187	0xbed6b2a5	-0.4193317
188	0x3eadf830	0.33978415
189	0x3eba35b0	0.36369085
190	0xbd98fd32	-0.07470168
191	0xbed11f60	-0.4084425
192	0xbe4e98a8	-0.20175421
193	0xbe0289f9	-0.12747945
194	0x3da3029e	0.079594836
195	0xbd089858	-0.03334841
196	0x3e866721	0.26250556
197	0xbe501b13	-0.20322828
198	0x3ee11b42	0.4396611
199	0xbefa878b	-0.48931536
200	0xbe9818d6	-0.29706448
201	0x3e357c42	0.17723182
202	0x3eb35671	0.35026887
203	0x3ee34a92	0.4439283
204	0xbcb41730	-0.021983713
205	0xbdc43bb9	-0.09581704
206	0x3ea1c912	0.31598717
207	0x3e8ed7e1	0.27899078
208	0xbe13d047	-0.1443492
209	0x3e80aa05	0.25129715
210	0xbeb2611f	-0.34839723
211	0x3ba181b8	0.0049287938
212	0xbf1766b0	-0.59141064
213	0x3e48f721	0.19625522
214	0xbdec0f9d	-0.115264155
215	0xbf4e0012	-0.8046886
216	0x3e2654c7	0.16243277
217	0xbec7ba02	-0.390091
218	0xbd9c68d0	-0.07637179
219	0x3ec55745	0.38543144
220	0x3f6df55e	0.92952526
221	0xbe462412	-0.19349697
222	0xbf166431	-0.5874663
223	0x3d1492a7	0.03627267
224	0x3e27567d	0.16341586
225	0xbe51da0d	-0.20493336
226	0x3e5e5d5f	0.21715306
227	0xbee17517	-0.44034645
228	0x3d7c81ee	0.061647348
229	0xbf2b291c	-0.668596
230	0x3e62d90a	0.22153106
231	0x3dc8c275	0.09802715
232	0xbe82b1d8	-0.2552631
233	0xbe732867	-0.23745881
234	0x3e569910	0.20956826
235	0x3dfa6376	0.12226002
236	0x3edaee75	0.42760053
237	0x3e97ef83	0.2967492
238	0xbfc7be20	-1.5604897
239	0xbe1e12b7	-0.15436827
240	0x3e70d572	0.23518923
241	0xbdb8b342	-0.09018566
242	0xbd920a3f	-0.071308605
243	0x3f078a85	0.5294574
244	0xbb6cd237	-0.003613604
245	0xbbe84e4c	-0.007089412
246	0x3d5b1c5f	0.053493854
247	0x3d9fb71a	0.07798596
248	0xbeaca8c8	-0.3372252
249	0xbe4d5319	-0.2005123
250	0x3c7698a0	0.015051037
251	0xbf312d29	-0.69209534
252	0xbd280e71	-0.041029397
253	0xbdb14dd5	-0.086574234
254	0x3ec3486d	0.38141194
255	0xbe93fb91	-0.28902867

fc3.bias f4 [128]
0	0xbe8d21df	-0.27564904
1	0xbd556fa9	-0.05210844
2	0x3f42291c	0.7584398
3	0x3f38ef68	0.72240305
4	0x3f27b46c	0.65509677
5	0xbc0ce7b4	-0.008600164
6	0xbe190be7	-0.14945947
7	0x3f1edee5	0.6205886
8	0xbc108c0e	-0.008822454
9	0x3e43a5a9	0.19106163
10	0x3f159855	0.58435565
11	0xbdbeb94a	-0.09312685
12	0x3e978e55	0.29600778
13	0x3e89d10c	0.26917303
14	0x3e37254e	0.17885324
15	0xbe032c09	-0.12809767
16	0x3e63d0a2	0.22247556
17	0x3da33f96	0.079711124
18	0x3cbf3638	0.023341283
19	0xbe86511a	-0.2623375
20	0xbd1dec34	-0.03855534
21	0xbd8700e0	-0.06591964
22	0xbe673b77	-0.22581278
23	0x3c975f3a	0.018478025
24	0x3f1e2b7c	0.617851
25	0x3fb8b771	1.4430982
26	0x3ebee966	0.37287444
27	0x3f2ec6b9	0.68271977
28	0x3ed493ba	0.41518956
29	0x3e2bb4ad	0.16768141
30	0xb9b9e63f	-0.00035457496
31	0x3ef34c8e	0.47519344
32	0xbdcbaaf4	-0.09944716
33	0x3e868932	0.26276547
34	0x3efd15c7	0.49430677
35	0x3c7ff5fb	0.015622611
36	0xbc3af254	-0.011410315
37	0x3fa1bfca	1.2636654
38	0x3da46cf4	0.08028594
39	0xbd248a1c	-0.040170774
40	0x3f7eafc2	0.99486935
41	0xbe3d49b7	-0.18485151
42	0xbda1e382	-0.07904722
43	0x3e733e53	0.23754244
44	0xbabd0da7	-0.0014423624
45	0x3ecb4d92	0.3970762
46	0xbe9c68bd	-0.3054866
47	0x3eb72d9b	0.35776982
48	0x3e7fe701	0.24990465
49	0x3b6d627c	0.0036222031
50	0x3ece7f5b	0.4033154
51	0x3d762b44	0.060099855
52	0xbdbca6da	-0.09211512
53	0x3ef3ff9f	0.4765596
54	0x3e373797	0.178923
55	0xbe035676	-0.12825951
56	0x3e6f70b6	0.2338284
57	0x3f17481d	0.5909441
58	0x3caabf74	0.020843245
59	0x3d6bc92c	0.0575649
60	0x3f3241b0	0.6963148
61	0xbe0e99ed	-0.13925906
62	0x3ebabb87	0.36471197
63	0xbe1063d8	-0.14100587
64	0xbe1a17c7	-0.15048133
65	0x3d92e21c	0.07172033
66	0x3e9e4db0	0.30918646
67	0x3f4357c0	0.7630577
68	0xbeb00bc2	-0.3438397
69	0x3d86e66c	0.06586918
70	0x3fa4b8da	1.2868912
71	0x3f1d10b6	0.61353624
72	0xbdfd122b	-0.12356981
73	0x3faf1d60	1.368084
74	0xbdb75f35	-0.08953706
75	0x3b0ca0df	0.0021458191
76	0x3cbddb6c	0.023175918
77	0x3e893d8c	0.2680477
78	0x3d9b7e99	0.07592506
79	0xbca3246e	-0.019914832
80	0x3d983a82	0.074330345
81	0x3d1f649e	0.038914315
82	0x3f51781b	0.8182389
83	0xbb62888e	-0.0034566256
84	0x3f253183	0.64528674
85	0x3eab21ce	0.33424228
86	0x3d9eacc7	0.077477984
87	0xbaf812ec	-0.0018926538
88	0x3e816071	0.2526889
89	0x3f96c680	1.1779327
90	0x3d8af0b2	0.0678419
91	0x3f37705e	0.71655834
92	0x3cd29e3e	0.025710221
93	0x3e717c27	0.23582517
94	0x3f01c3ed	0.50689584
95	0x3e499a15	0.19687684
96	0x3cf238aa	0.029568035
97	0x3eda2010	0.42602587
98	0x3f15ca3c	0.5851171
99	0x3e86b8e5	0.26312938
100	0x3f0e0843	0.55481356
101	0xbc47dcad	-0.012198609
102	0xbd0e52ef	-0.03474706
103	0x3cd8f15d	0.026482278
104	0xbecc6fb4	-0.39928973
105	0x3eaa02f5	0.3320538
106	0x3f1484ae	0.58014953
107	0x3f24803b	0.64258164
108	0x3f109581	0.56478125
109	0x3e1ab80a	0.15109268
110	0x3edf1d1c	0.43576896
111	0xbba7a2e6	-0.0051158546
112	0x3f1427af	0.5787305
113	0x3e3a0e63	0.1816955
114	0x3e62128c	0.22077388
115	0xbba78aac	-0.0051129665
116	0xbca7670e	-0.020434882
117	0x3e8a775b	0.27044186
118	0x3f1bd164	0.6086638
119	0x3efec60c	0.49760473
120	0x3f9ddaf8	1.2332449
121	0xbf092303	-0.5356905
122	0x3ef7d965	0.48408046
123	0xbd9d0985	-0.07667831
124	0xbc95bed6	-0.018279474
125	0x3f9d5b23	1.2293438
126	0x3e18cac3	0.14921097
127	0xbc2d8b20	-0.010592252

fc4.weight f4 [1, 128]
0	0xbf6b8bbd	-0.920101
1	0x3e0c85d0	0.1372292
2	0x3fbd7bf7	1.4803456
3	0xc056484c	-3.3481627
4	0xbfa269ff	-1.2688597
5	0xbd80ef8b	-0.06295689
6	0x3ea5b520	0.3236475
7	0xbf9eaabf	-1.2395858
8	0x38425efc	4.6341665e-05
9	0x3f7465a6	0.95467603
10	0xbfc2b60b	-1.5211805
11	0xbf5db32b	-0.86601514
12	0xc0566bf7	-3.3503397
13	0x3f8e1e59	1.1103011
14	0x3ee0060f	0.43754622
15	0xbfe164f4	-1.7608933
16	0x3f933d65	1.1503111
17	0xc05ce31a	-3.4513612
18	0xbf930569	-1.1486026
19	0xbfe366e6	-1.7765777
20	0x3f026442	0.5093423
21	0xbf96adbe	-1.1771772
22	0xbf64dfdb	-0.89404076
23	0xbf0c450d	-0.54792863
24	0x3f66a361	0.90093046
25	0x3f2b844e	0.66998756
26	0x3fa2632b	1.2686514
27	0xbfb1eef5	-1.3901049
28	0xc0272764	-2.6117792
29	0x3f4d4a68	0.8019166
30	0xba5829ff	-0.0008246004
31	0xc0032d20	-2.0496292
32	0xbf2bd133	-0.6711609
33	0x3f0d35aa	0.5516001
34	0xbf9ea95b	-1.2395433
35	0x3f6d1b51	0.92619807
36	0x3b3cb4f3	0.0028794378
37	0x3f346eb8	0.70481443
38	0xbf674639	-0.90341526
39	0x3ebfba24	0.37446702
40	0x3f90b575	1.1305376
41	0xbf32140e	-0.6956185
42	0x3f67feed	0.9062336
43	0x3f7e949a	0.994455
44	0x38a11287	7.680529e-05
45	0x401025be	2.2523036
46	0xbf3e9ba7	-0.74456257
47	0x3f4d3032	0.80151665
48	0x3f589899	0.84607846
49	0xbec84afb	-0.39119706
50	0xbfc91e20	-1.5712318
51	0x3ef19551	0.47184232
52	0x3f4bd0ef	0.7961568
53	0xbfceeb89	-1.616563
54	0x3f8f7e60	1.1210442
55	0xbf2e9f0f	-0.68211454
56	0x3f0b251f	0.5435352
57	0xbf94b2d4	-1.1617074
58	0x3e74a0d0	0.2388947
59	0x3f45f907	0.7733311
60	0x3f4f0541	0.8086739
61	0x3f7fd683	0.99936694
62	0x3fb40e6c	1.4066901
63	0xbf0ebfd8	-0.5576148
64	0xbf86483f	-1.0490798
65	0x3f301c51	0.6879321
66	0xc05c5702	-3.4428105
67	0xbf9b0238	-1.2110052
68	0x3fa117c0	1.2585373
69	0xc00fb28e	-2.245273
70	0x3f26a0e8	0.65089273
71	0xbfad648d	-1.3546311
72	0xbf208c17	-0.6271376
73	0x3f315db1	0.69283587
74	0xbf03bc91	-0.51459605
75	0xb66a7244	-3.4935229e-06
76	0x3f2fa7ca	0.686154
77	0x3fb24162	1.3926203
78	0x3e8f94ee	0.28043312
79	0xbf28c4d5	-0.6592534
80	0xbf64cd40	-0.89375687
81	0x3f38618c	0.72023845
82	0xbfc2d8e9	-1.5222446
83	0xbf862be1	-1.0482141
84	0xbfef59fc	-1.8699336
85	0x3f7162da	0.9429146
86	0x3fa84f6c	1.3149238
87	0x3e38e130	0.18054652
88	0x3fc87e4f	1.5663546
89	0x3f3da986	0.740868
90	0x3ed2638e	0.4109158
91	0xbf9c688f	-1.2219409
92	0xbf30705c	-0.68921447
93	0x3f23e235	0.6401704
94	0xbfa88f15	-1.3168665
95	0x3f1da648	0.6158185
96	0xbf9d8637	-1.2306584
97	0xc069bf0a	-3.652285
98	0xbf93ceb4	-1.1547456
99	0x3f4c865b	0.7989251
100	0x3f98ae06	1.1928108
101	0xbb19008d	-0.0023346276
102	0xbf516e48	-0.818089
103	0xbf2b3d0e	-0.6689004
104	0xbffbe4bc	-1.9679179
105	0x401416bb	2.3138874
106	0xbffd133b	-1.9771494
107	0x3f856c2a	1.0423634
108	0x3f71007a	0.9414135
109	0x3f5af208	0.8552556
110	0xc087e79d	-4.247023
111	0xb9bde0db	-0.0003621642
112	0x3f3616b7	0.7112841
113	0xc049dd60	-3.1541367
114	0x3f983c91	1.1893483
115	0xbaa4a87b	-0.0012562418
116	0x3c7f00a0	0.015564114
117	0xc00bd910	-2.1851234
118	0xbfa97aea	-1.3240635
119	0x3faa25b3	1.3292755
120	0x3f480eef	0.78147787
121	0xbfa7d47a	-1.3111718
122	0x3ee8ef96	0.4549529
123	0xbe218720	-0.15774202
124	0x341f327e	1.4826398e-07
125	0x3f34fc67	0.70697635
126	0xbf50ac6e	-0.81513107
127	0x3a5416e5	0.000809057
